…
 SinExp and HIV-1 datasets) is a standard three-layer ReLU dropout network with no biases, i.e. small_critic. When using this network, the\ninputs X and Y are first concatenated then given as input to the network. The two first layers have size 100, while the last layer has size 1. We train the network using Adam optimizer with β1 = 0.5, β2 = 0.999, weight_decay=1e-4 learning rate αη = 1e-3 and αη = 0.1, and perform 4000 training iterations/updates, computed with batches of size 100. All NNs used in our experiments were implemented using PyTorch [45].\nsmall_critic( (branchxy): Sequential(\n(0): Linear(in_features=51, out_features=100, bias=False) (1): ReLU() (2): Dropout(p=0.3) (3): Linear(in_features=100, out_features=100, bias=False) (4): ReLU() (5): Dropout(p=0.3) (6): Linear(in_features=100, out_features=1, bias=False)\n) )\nThe critic network used in the experiments with Liang and CCLE datasets contains two different branches that separately process the inputs X (branchx) and Y (branchy), then the output of these two branches are concatenated and processed by a final branch that contains three-layer LeakyReLU network (branchxy). We name this network big_critic (see figure bellow for details about layer sizes). This network is trained with the same Adam settings as above for 4000 updates (Liang) and 8000 updates (CCLE).\nbig_critic( (branchx): Sequential(\n(0): Linear(in_features=500, out_features=100, bias=True) (1): LeakyReLU(negative_slope=0.01) (2): Linear(in_features=100, out_features=100, bias=True) (3): LeakyReLU(negative_slope=0.01)\n) (branchy): Sequential(\n(0): Linear(in_features=1, out_features=100, bias=True) (1): LeakyReLU(negative_slope=0.01) (2): Linear(in_features=100, out_features=100, bias=True) (3): LeakyReLU(negative_slope=0.01)\n) (branchxy): Sequential(\n(0): Linear(in_features=200, out_features=100, bias=True) (1): LeakyReLU(negative_slope=0.01) (2): Linear(in_features=100, out_features=100, bias=True) (3): LeakyReLU(negative_slope=0.01) (4): Linear(in_features=100, out_features=1, bias=True)\n) )\nThe regressor NN used for the downstream regression task in Section 8 is a standard three-layer ReLU dropout network. This regressor NN was trained with the same Adam settings as above for 1000 updates with a batchSize of 16. We did not perform any hyperparameter tuning or model selection on heldout MSE performance.\nregressor_NN( (net): Sequential(\n(0): Linear(in_features=7251, out_features=100, bias=True) (1): ReLU() (2): Dropout(p=0.3) (3): Linear(in_features=100, out_features=100, bias=True) (4): ReLU() (5): Dropout(p=0.3)\n(6): Linear(in_features=100, out_features=1, bias=True) )\n)"
    } ],
    "references" : [ {
      "title" : "On integral probability metrics, φ-divergences and binary classification",
      "author" : [ "Bharath K. Sriperumbudur", "Kenji Fukumizu", "Arthur Gretton", "Bernhard Scholkopf", "Gert R.G. Lanckriet" ],
      "venue" : null,
      "citeRegEx" : "1",
      "shortCiteRegEx" : "1",
      "year" : 2009
…
